records/mnist_model.pth (torch, 943071 bytes, 6 tensors)

model.1.weight f4 [256, 784]
000000 13 33 e2 bc 30 f9 54 3c 5c 4f 0c bc 32 2b 6e bc
       -0.027612245 0.012998864 -0.008563843 -0.014536666
000010 12 f2 5b bc 06 c6 cd 3c 90 46 75 3c e0 29 6b 3c
       -0.013424413 0.025118839 0.014970437 0.0143532455
000020 0a 09 2f bc 08 0e c3 3c 2a fb 02 bc 73 3d 03 3d
       -0.010683307 0.023810402 -0.0079944525 0.032041024
000030 b5 37 ec bd e8 92 a6 bd 33 a9 a5 3d a0 22 5e 3d
       -0.11534063 -0.08133489 0.08088913 0.05423224
000040 a0 ab 0b bb 00 c4 73 3c 5c bb 4d bc e1 75 e9 bc
       -0.0021312013 0.014878273 -0.012556877 -0.028498592
000050 50 73 b6 bc 68 06 42 3c 30 8f 0c bd 40 fe c6 bb
       -0.022271782 0.011842348 -0.03431624 -0.0060727894
000060 8e e1 f7 3c 42 8d f1 3c 3c 14 b5 bc d8 67 a1 3b
       0.03025892 0.029486302 -0.022104375 0.004925709
000070 6a 93 1f bc 55 03 df bc de 27 f7 3c 16 7f ef 3c
       -0.009739736 -0.027223269 0.030170377 0.029235404
000080 68 4d 7a 3c 03 c2 b7 bc 4d 5e d1 3c 4d df 2d 3c
       0.015277244 -0.02243138 0.025557661 0.010612321
000090 1c 14 2f be 4c 5d 12 be 6f be d8 bc 48 1b 2c 3d
       -0.17097515 -0.14293402 -0.026457993 0.042018205
0000a0 af 93 35 be c1 b6 28 be 98 90 32 3c 4f 12 a9 3c
       -0.17732118 -0.16475965 0.010898732 0.020638613
0000b0 74 82 42 3e a4 5a d8 3a 6c 83 8f be be 25 e5 bd
       0.18995076 0.0016506505 -0.28029954 -0.111888394
0000c0 ab a1 15 be 1b 9f 04 be 72 14 b9 bd a5 7d 6f 3d
       -0.14612453 -0.12951319 -0.09037103 0.058469433
0000d0 6e 21 43 bc e8 5f be 3b 5c e7 e9 bc 90 3f 9f 3b
       -0.011909826 0.0058097728 -0.028552704 0.004859872
0000e0 a0 af 7f 3b e3 d1 10 3d 19 3d 14 bd d5 f0 83 bc
       0.0039014593 0.035356414 -0.03619108 -0.016106049
0000f0 e1 6d 31 bd 02 bd 19 3c d7 7a 83 bd b5 a0 0d be
       -0.04331768 0.009383442 -0.06419914 -0.13830836
000100 18 fb 92 3e d7 2a f7 3e 6d 3f 55 3e 04 4a 2a bd
       0.28707194 0.48274872 0.20824976 -0.041574493
000110 8e 78 81 be a6 16 51 3d 7f a8 3a 3e 10 7c bb 3d
       -0.25287288 0.05104699 0.18228339 0.091545224
000120 51 66 75 3c 99 34 10 be c8 98 98 bd 07 2c 69 be
       0.014978007 -0.14082564 -0.07451016 -0.22770701
000130 b1 67 46 be d7 3e 06 be 52 20 5f be ce 53 00 3e
       -0.19375493 -0.13109909 -0.21789673 0.12531969
000140 58 fd 0a 3e dc 52 07 bc bc 1f db 3c 20 7b 01 bd
       0.13573205 -0.008259501 0.02674853 -0.03161156
000150 70 44 79 bb 8e 54 d6 3c 89 51 a7 3e f3 ad 73 3e
       -0.0038035177 0.026163366 0.32679394 0.23796825
000160 26 95 26 3d 37 fa 36 3e fa aa 4c 3e 9e e6 48 3e
       0.040669583 0.17868887 0.19987097 0.19619223
000170 99 2d c6 3e 34 07 0a 3f 4e 89 00 3f 46 ec d8 3e
       0.38706663 0.5391724 0.5020951 0.42367762
000180 ae 65 17 3e 8f 7e 69 bd 26 b6 89 3c 7a db dd 3d
       0.14784881 -0.05700546 0.016810488 0.108328775
000190 e1 5c c7 3e 8e ae c3 3e 89 14 4b 3e 3d c8 17 3e
       0.38938048 0.38219112 0.19832052 0.14822479
0001a0 f7 fb 27 bd 67 91 88 be 83 77 80 be 63 f5 fe be
       -0.041011777 -0.26673433 -0.2509118 -0.4979659
0001b0 e4 f8 de be cb a4 2b be bf 2b e5 bd d8 79 c6 bc
       -0.43549263 -0.16762082 -0.111899845 -0.024228022
0001c0 3c e6 85 bc 60 68 95 3b c3 03 eb 3e ca b1 53 3e
       -0.016345136 0.0045595616 0.45901307 0.2067329
0001d0 5f 54 ca 3d e7 73 a9 3e de e4 a1 3e b0 91 c5 3e
       0.09879374 0.3309624 0.31619924 0.38587713
0001e0 7a 99 85 3e 05 03 76 3e 92 2c cd 3e 16 8c a1 3e
       0.26093656 0.2402459 0.40073067 0.3155219
0001f0 15 d9 b4 3d 0c 7e 05 be 40 85 02 bd 0c 12 02 3c
       0.088304676 -0.13036364 -0.03186536 0.007938873
000200 43 1c 34 3e 02 5d 95 3e 9d 1a c6 3e 65 1c d8 3e
       0.17588906 0.29172522 0.3869218 0.42209163
000210 9e 43 9a 3e 46 c6 05 be ff d7 5d bd 55 6e b9 be
       0.30129713 -0.13063917 -0.054161068 -0.3621699
000220 74 54 ba be 1c 41 02 bf 1f a2 85 be 79 a4 3e be
       -0.36392558 -0.508806 -0.2610025 -0.18617429
000230 78 95 b2 3c 9b 5a 07 3d 3a ce b6 3e af 70 5d 3e
       0.021799788 0.033045392 0.35704213 0.21625017
000240 cf ac 32 3d 1a fa b9 3d 01 4d a8 3e fd 2d e6 3e
       0.043621834 0.09080906 0.3287125 0.4495696
000250 c2 74 48 3e 2a ae 05 3e fa 77 a8 3e cd 1d 8f 3e
       0.1957579 0.1305472 0.32904035 0.27952424
000260 60 28 d2 3d 6a 5f f6 3b 92 6b d1 3a ab f4 a9 bc
       0.10261607 0.0075186985 0.0015977493 -0.02074655
000270 6d 5f 46 3e 80 94 93 bd 4c 48 29 3e dc e4 34 3d
       0.1937234 -0.072060585 0.16531485 0.04416357
000280 be 7c 0b 3d 52 7e eb 3c 1f 87 05 be f6 fe 54 be
       0.03405451 0.028746758 -0.13039826 -0.20800385
000290 21 02 08 bf a1 fa 15 bf 1b 18 fd be 2a 7c 3d be
       -0.5312825 -0.58585554 -0.49432454 -0.18504396
0002a0 70 d3 85 3b ed d5 88 3d b5 3d 4d 3e 0b 0c 65 3e
       0.004084043 0.06681428 0.2004307 0.22367875
0002b0 f7 e7 8f 3d ec 16 13 3d 8c a2 a3 3e ba e1 81 3e
       0.07026666 0.035910532 0.3195995 0.25367528
0002c0 1f f3 10 bd 4e ae c1 3e 62 2a ef 3e 4c 51 32 3d
       -0.03538811 0.37828296 0.46712023 0.043534562
0002d0 56 99 08 3d 69 06 ec 3d eb a5 22 3e ac 05 1d 3e
       0.033349358 0.1152466 0.15883605 0.15334195
0002e0 54 f9 a5 ba f5 a9 0c be 05 78 b3 3d 35 cf 95 3b
       -0.0012662807 -0.13736708 0.08763126 0.00457182
0002f0 6f 7c a3 bd c0 b1 73 3d 29 2a f1 3d 6d a1 10 3d
       -0.07982718 0.059495687 0.117756195 0.035310198
000300 e3 df ed bd ed 5a 2b bd ec cf 9f be 58 0c 92 be
       -0.11614969 -0.04183476 -0.3121332 -0.28525043
000310 06 c1 0c bd c0 f8 15 3e 73 68 7c 3e 47 87 a4 3e
       -0.03436377 0.14645672 0.24649219 0.32134458
000320 3c 26 bc 3d ac d6 b1 3c d6 af 13 3e f9 e9 d2 3c
       0.0918698 0.021708809 0.14422545 0.025746332
000330 ba 50 9f 3d a2 ee 2c 3e b1 f2 82 3e fc 5b a5 3e
       0.07779069 0.16887906 0.25575784 0.3229674
000340 6a ca 3e 3e 10 fd bd 3e 98 43 92 3e 22 0d 9f 3d
       0.18631902 0.37107134 0.28567195 0.07766177
000350 8e b0 51 3d 71 95 24 bd 2a 08 7a bd 3b 5f 7a bc
       0.051193766 -0.04018158 -0.061042942 -0.015281494
000360 63 8c 1a 3d a6 98 98 3d d7 4b 3d 3e a6 ef cf bd
       0.03773154 0.074509904 0.18485962 -0.10153131
000370 6d a9 70 bd ed f6 2e 3d 48 d5 8c be 19 5a a9 be
       -0.058755327 0.042715956 -0.2750647 -0.33076552
000380 b6 0a d0 bb 82 24 80 3c 46 a5 70 be 4c f8 6c 3e
       -0.006348933 0.015642408 -0.23500547 0.23141593
000390 b4 3f 33 3e b3 bb e6 3c 87 05 a7 be 0a d1 61 be
       0.1750477 0.028165674 -0.32621405 -0.22052398
0003a0 95 70 8b be 8e 9f 97 be 88 b2 03 3e 9b f6 b1 3e
       -0.2723433 -0.29613918 0.12861073 0.34758458
0003b0 1b 85 05 3e 73 ee bc 3d 7b 38 d3 3d 54 03 42 3d
       0.13039057 0.09225168 0.10313507 0.047366455
0003c0 ae c2 9a bd 67 33 e5 bc e9 83 fd 3d 93 4d b1 3c
       -0.075566635 -0.027978612 0.123786755 0.021643436
0003d0 57 d2 23 3d ff 6e d0 bc bb 63 59 3e 4e 9c 14 3d
       0.039995518 -0.025443552 0.2122945 0.036281876
0003e0 32 98 d7 be b5 9c 93 be 52 4c 8e be dd 57 07 3d
       -0.42108303 -0.28830495 -0.27792603 0.033042777
0003f0 3e 0a 05 bd 30 b1 7f 3d 66 08 2a bd b3 68 47 3e
       -0.03248047 0.06242484 -0.041511916 0.19473533

model.1.bias f4 [256]
000000 63 2e 31 3c 0a a8 1b bd f1 90 a6 bc 5c e4 6c 3c
       0.010814282 -0.03800205 -0.020332785 0.014458742
000010 2e 06 0f bd cb dd 76 bd d5 3e 14 be 33 dd a4 be
       -0.034918003 -0.060270112 -0.14477094 -0.32200012
000020 01 3e 01 be 38 e4 db bd ac fe 71 3e 0b 1d aa 3e
       -0.12621309 -0.10736889 0.23632306 0.33225283
000030 a8 ec 7d 3e da 8a 86 be 30 0f b2 bd 6e 42 30 3c
       0.24797308 -0.2627781 -0.08694303 0.010758026
000040 86 17 09 3c 43 59 a2 3d a6 63 5c be 34 db ca bc
       0.008367425 0.079271816 -0.21522388 -0.024762727
000050 30 a5 f5 bd 1e 92 6d be 24 99 23 3e f4 1f 18 be
       -0.11994398 -0.2320027 0.15976387 -0.14855939
000060 22 eb 8b 3d 29 32 a5 bd 6b 8a 87 be b2 21 09 be
       0.068319574 -0.08066208 -0.26472792 -0.1339176
000070 1b eb 5e 3d 07 23 be 3d 43 f3 67 bc f2 e1 31 be
       0.054423433 0.09284025 -0.014157119 -0.17371348
000080 1c 38 03 be ee fb 4c be b2 10 e3 bd 3f 23 1a be
       -0.12814373 -0.20017979 -0.11087169 -0.15052508
000090 dc 97 10 be 82 4f 4b be 20 ee af be f2 87 16 3e
       -0.1412043 -0.19854549 -0.34361362 0.14700297
0000a0 72 02 e5 bb 83 09 93 3e 8a eb ee bd ba 9a 1a 3e
       -0.006988817 0.28718194 -0.11666019 0.15098086
0000b0 fa bd 90 3c a0 cb 63 3e fe 5d 0f be 25 1b de bd
       0.017668713 0.22245646 -0.14000699 -0.10845021
0000c0 5e 29 5d be e4 0e 66 be 2c d8 d2 3c fe ba 92 bb
       -0.21597812 -0.22466618 0.025737844 -0.0044778576
0000d0 95 a5 9b be e3 33 41 3e 48 12 21 3e 19 c6 f1 3c
       -0.30399767 0.1886745 0.1572963 0.029513406
0000e0 dd 6c f1 bd bf 4e 48 be 34 db da bd 25 18 19 be
       -0.11788342 -0.19561289 -0.10686341 -0.14950617
0000f0 5d 95 96 be 56 83 4b be 9b 72 36 be 2b af 6f 3e
       -0.2941083 -0.1987432 -0.17817156 0.23406665
000100 bd 5e 8d bd ae 9b a9 bb 1d da ee bd 8d d6 5d be
       -0.069028355 -0.005176029 -0.116626956 -0.21663876
000110 cb 96 03 3c b8 97 03 3e 1b 31 59 3e fb be 21 3c
       0.008031557 0.12850845 0.21210138 0.009872193
000120 5b 91 93 3d cd b3 59 be 5a 69 b8 bd ee 66 3a 3e
       0.07205459 -0.21259995 -0.09004469 0.18203327
000130 60 47 c8 3c a3 98 6a 3d 46 18 d8 bc ce 68 66 bb
       0.024448097 0.057274472 -0.026378762 -0.0035157683
000140 5f 54 a6 be 4f 85 19 be d8 ab 0a be d2 67 ca bd
       -0.32486245 -0.1499226 -0.13542116 -0.098830834
000150 c0 02 a5 3c 78 b2 34 3b dd 06 04 bf 10 be 93 3e
       0.020142913 0.0027572196 -0.5157297 0.28855944
000160 bd 9e f5 3d 74 19 e3 3d ad 65 70 bd b5 b5 25 3d
       0.119931675 0.11088839 -0.058690716 0.040456492
000170 aa 85 2c bc 88 f0 8c 3e 94 ac 10 bd 6f e5 e1 bd
       -0.010529915 0.2752726 -0.035320833 -0.11030089
000180 b5 a3 9c 3d 58 fa 6f 3e 1c 8d 3a be e6 0f 42 be
       0.07648412 0.23435342 -0.18217891 -0.18951377
000190 17 c2 8e be 70 c6 ea 3d 13 88 a2 be 85 6f 3d bd
       -0.27882454 0.1146363 -0.3174444 -0.04624893
0001a0 a6 ab 54 be 7d f4 da 3d 2c 15 68 bb 2e 7e 08 3d
       -0.20768604 0.10691164 -0.003541301 0.03332346
0001b0 08 ae fe bc ca 44 15 3e 2d 18 97 3b 62 9d ed bb
       -0.031088844 0.14577022 0.0046110363 -0.0072514275
0001c0 72 56 01 bc d6 11 a8 3d 19 40 88 be 2c 12 75 be
       -0.007894145 0.08206527 -0.26611403 -0.23932713
0001d0 14 46 65 3c 96 75 88 bc 7f dd 80 bd b5 3b 46 be
       0.013993759 -0.016657632 -0.06292247 -0.19358714
0001e0 dd 73 3d bd f2 de ed bd 54 d7 a1 3d ff c9 9c bd
       -0.046253074 -0.11614789 0.07902399 -0.07655715
0001f0 df 17 8a be e1 b6 8e 3e d7 68 4d be ea 0d fc 3c
       -0.26971337 0.278739 -0.20059524 0.030768353
000200 58 ec 14 bc 0d 71 26 bd 71 1f 55 3d 46 76 74 3e
       -0.009089552 -0.040635157 0.052031938 0.23873243
000210 cf 0e 90 bd 07 bc 90 3d 16 88 4c bd 9c b1 42 bb
       -0.070340745 0.07067113 -0.04993447 -0.0029707914
000220 05 b5 93 bd c8 82 68 3e ed a7 80 3e fe 70 ec bc
       -0.07212261 0.22706139 0.25128117 -0.028862473
000230 c2 fe b3 bd 7d b3 90 bd 1d 56 23 bd d3 a8 a1 3e
       -0.087888256 -0.07065485 -0.039877046 0.31574115
000240 ad 2c 36 bd 5a f6 f4 bc 86 53 0a 3e 66 53 a5 3d
       -0.0444762 -0.029902626 0.13508424 0.080725476
000250 ef 2a 08 3e 17 32 d3 bd f1 9a 93 be 1c 13 bb 3c
       0.13297628 -0.10312288 -0.28829148 0.02283626
000260 f9 8f 5a 3d 73 bf 57 bd 39 e0 6b bd 2d 12 aa bd
       0.05335996 -0.052672815 -0.057586882 -0.08304248
000270 7c b8 5e 3d cd 71 79 be ec 53 e0 bd 02 8f ca bd
       0.054375157 -0.24359818 -0.10953507 -0.09890558
000280 88 15 63 3d 35 ed f8 bc 85 4e 7a bd 52 eb 83 3d
       0.055440456 -0.030386547 -0.06111004 0.06441368
000290 73 3c 8c bc 32 05 39 be af 82 6b 3c 4a 61 40 be
       -0.017118668 -0.18068388 0.014374419 -0.18787113
0002a0 33 33 b8 3d 20 e2 93 3e e1 91 33 be 46 c2 7b 3c
       0.089941405 0.28883457 -0.17536117 0.015366143
0002b0 90 1d 13 3e 8d ed 27 be 5f d9 b6 bd 3c 3d 8a be
       0.14366746 -0.16399212 -0.08928179 -0.26999843
0002c0 d4 1c a8 3d 6d f8 44 3e 5e 89 15 be a2 e1 be be
       0.082086235 0.19235392 -0.14603183 -0.3728152
0002d0 b5 59 1c be a7 bb d7 bd b2 48 e0 be a3 3e 9f 3d
       -0.15268596 -0.10533839 -0.43805462 0.07775619
0002e0 ec 37 a6 be b5 47 70 be ef ce 3d 3d e7 1f 2b bc
       -0.3246454 -0.23464854 0.046339925 -0.010444618
0002f0 be 98 ae bc ab 99 db bd 08 ce 57 3c d2 b8 d8 3d
       -0.021313068 -0.10722669 0.01317168 0.10582127
000300 81 09 88 bb 20 62 83 3e d3 48 f0 3c 95 8d f4 3d
       -0.0041515236 0.256608 0.0293316 0.11941067
000310 d3 67 25 bd 5f 93 a2 bc e8 5b 71 be f4 d1 1f be
       -0.040382218 -0.019845663 -0.23570216 -0.15607435
000320 5c 91 32 3d 55 5e ba bd 6a 01 cf 3d e7 e2 7c be
       0.043595657 -0.09100024 0.101076916 -0.24695931
000330 d3 fe 5e be 6f 15 87 be 2e 5a b8 bc 5d b2 bf 3b
       -0.21776895 -0.2638354 -0.022503939 0.00585012
000340 39 7b 5a be 72 39 76 3e 1c 28 f6 be 5a c6 92 3e
       -0.21336068 0.24045351 -0.48077476 0.28666955
000350 f1 ba 79 3c 0b 8b e8 bc f2 40 29 be da 8d 7c 3d
       0.015242324 -0.028386613 -0.16528681 0.061658718
000360 4c 30 f8 bd 9e 49 2f 3d b3 64 4b 3d 73 62 f0 bd
       -0.12118587 0.042794816 0.04965658 -0.11737528
000370 08 62 ff bd b9 50 3d bd 7a 04 c7 bd ba c4 43 3e
       -0.1246987 -0.04621956 -0.09717651 0.19118014
000380 53 99 4f bd bd 32 7b be 5f 7a 2f be 52 85 0c bd
       -0.05068333 -0.24531074 -0.17136525 -0.03430683
000390 e7 74 1e 3d 3f 44 c6 3d 93 2e c5 bd bc b7 67 be
       0.038685706 0.09680986 -0.09628024 -0.22628683
0003a0 00 ef 09 be 16 56 08 be 51 5f 11 bd 12 dd 8b bd
       -0.13470078 -0.13314089 -0.03549129 -0.06829275
0003b0 81 a8 9c 3d 84 fd 02 3e 0f 9c 0b 3e d2 92 5b 3e
       0.07649327 0.12792021 0.1363375 0.21442726
0003c0 c9 2a 1d bd 0b 17 86 bd b5 9c 2e be ce c6 2a 3e
       -0.03837088 -0.06547364 -0.17051966 0.166774
0003d0 53 79 26 3c 0b 37 e0 3b d4 91 a1 3e 2d 5e 4a bc
       0.010160762 0.006842499 0.3155657 -0.012351555
0003e0 52 ef a2 bd 45 e9 81 bd a8 7b 66 3e cc f3 76 bd
       -0.07955803 -0.06343321 0.22508109 -0.060291097
0003f0 c9 9f 1b be 70 82 a8 3d 16 df cf bc c7 2b 92 3c
       -0.15197672 0.08228004 -0.02537493 0.01784314

model.3.weight f4 [128, 256]
000000 c7 b8 04 3e f2 a0 a8 3e 89 7f b0 3e 22 c2 28 be
       0.12961112 0.32935292 0.34472302 -0.16480306
000010 f1 41 03 3b fb ad d5 bd 95 35 b1 3e da b2 6e bb
       0.0020028318 -0.10433575 0.34611192 -0.0036422522
000020 ca 4b 39 be bb d7 40 3e 87 1c ef be d6 a3 be be
       -0.18095317 0.18832295 -0.46701452 -0.37234372
000030 81 1a c4 bc 48 89 31 3e cc 4c d1 3d 87 75 77 3d
       -0.02393842 0.17337525 0.10219726 0.060414817
000040 ff 1a fe bd 3f 5a 35 bd fd 80 ab be 94 85 b0 bd
       -0.12407493 -0.04427552 -0.33496848 -0.08619228
000050 91 ff 47 be 4c a6 07 3e 40 71 02 be 31 a7 d3 be
       -0.19531085 0.13247031 -0.12738514 -0.41338494
000060 0d a9 c7 be bd 25 8c be 0e eb 32 3e a7 33 32 be
       -0.38996163 -0.27372542 0.17472479 -0.17402516
000070 36 df 1c 3e 2f 0d bc 3d 2c 51 83 be e0 1c 4e be
       0.15319523 0.09182202 -0.25647867 -0.20128202
000080 39 94 bd be 9b 7f 0d bd 5f ee 3b be 6a fd c8 be
       -0.37027147 -0.034545522 -0.1835265 -0.3925584
000090 25 d9 d5 3d 41 d5 f3 3e 50 cf a8 3c f7 22 ac 3e
       0.10441808 0.47623637 0.020606667 0.33620426
0000a0 4c c0 99 be 65 15 c5 3d 30 19 14 be 12 68 6b 3d
       -0.30029523 0.09623221 -0.14462733 0.057472296
0000b0 63 b2 b9 3e 1b c8 a5 3e 8e c4 17 be 65 14 ca 3d
       0.3626891 0.3237923 -0.14821073 0.09867171
0000c0 d9 73 8e 3e 9c e6 2d bc 2c c3 18 be 0c 3e 34 3f
       0.2782276 -0.010614064 -0.14918202 0.70407176
0000d0 59 19 eb bd fd c5 61 bd d1 a3 2b be 75 22 5b be
       -0.11479444 -0.055120457 -0.1676171 -0.21399863
0000e0 ff ff ee be 58 ea ed 3d c7 a1 a2 bd ce bb 0a 3d
       -0.46679685 0.11616963 -0.07941013 0.03387051
0000f0 ca 0c 81 be 8e a3 c0 be 8c 80 3b be c4 c5 9b 3b
       -0.2520507 -0.37624782 -0.18310755 0.0047538
000100 09 c2 70 bc 70 91 4c 3d 6b bf 8f 3e 51 02 d5 3d
       -0.014694699 0.049943388 0.28075728 0.104008324
000110 06 82 30 bb 7a 1f 74 be 3b 2c 2f bf c6 82 a7 be
       -0.0026932969 -0.23840132 -0.68426865 -0.3271696
000120 c4 15 c7 bd c1 4f 7b 3d f9 d2 bd bd 73 e2 89 3e
       -0.09720948 0.061355356 -0.092687555 0.2693058
000130 bd bc e4 be d1 9c d8 be 49 49 3c 3d 25 eb 94 3d
       -0.44675246 -0.4230714 0.045968328 0.07271413
000140 9a b6 01 bf f3 00 91 be 66 34 74 3e 0b 35 a1 be
       -0.5066925 -0.28321037 0.23848113 -0.3148578
000150 06 d9 af be 51 e6 d0 be 82 05 e2 3d 72 08 06 3f
       -0.34345263 -0.40800717 0.11036207 0.52356637
000160 72 7b 87 be 50 69 91 3e cd 83 3d 3e ca 15 c8 3b
       -0.2646137 0.2840066 0.1850731 0.006106113
000170 41 2f 71 bd 82 23 b1 be 81 25 49 3d d7 0b 05 bf
       -0.058882955 -0.34597403 0.049108032 -0.5197119
000180 ee 15 06 3e 39 f2 c7 be d5 f0 0e bf 92 1c b9 be
       0.13094303 -0.3905199 -0.5583623 -0.3615461
000190 32 6c ac be 52 71 d3 be cd 53 f1 bd c9 c9 0c 3e
       -0.33676296 -0.41297394 -0.11783562 0.1374885
0001a0 b7 a4 85 bd d4 7c e5 bd 4d c7 cd 3c 7c 5a ca bd
       -0.065255575 -0.1120545 0.025119448 -0.0988054
0001b0 27 ab 01 be 31 09 16 3e 57 ae 96 be f6 81 1f 3d
       -0.12662946 0.14651944 -0.29429886 0.0389423
0001c0 25 13 8e bd d2 21 38 3e 7d ac bc 3c a7 90 90 be
       -0.06937245 0.17981651 0.023031468 -0.2823536
0001d0 41 92 1d bf 53 56 53 be 2c 32 c4 be 4e bd 07 3d
       -0.6155129 -0.20638399 -0.38319528 0.03313952
0001e0 65 89 b3 be 75 03 8a be 16 d9 fc be 23 5e ff bd
       -0.3506576 -0.26955763 -0.49384373 -0.12469127
0001f0 a0 d9 03 be a1 86 ba 3d 5c 8e bb be 98 e7 8c 3e
       -0.12875986 0.0910771 -0.3663205 0.27520442
000200 84 d4 d5 bd 2f 07 e4 3d cb a0 26 be 21 6c 3c be
       -0.10440925 0.11134183 -0.16272275 -0.18400623
000210 e2 98 4d 3b 28 66 28 be fb a5 f1 3c ec b3 9c be
       0.0031371643 -0.1644522 0.029498091 -0.3060602
000220 b3 a8 ac bd b2 00 87 3e da c3 81 3e 9b 3b a9 bd
       -0.08430614 0.26367718 0.25344735 -0.08263322
000230 9c 58 e7 be e5 b8 a0 3d 28 57 e4 3c 99 6f a0 be
       -0.4518479 0.07847766 0.02787359 -0.31335142
000240 f1 a5 c1 bb db 72 b1 bc c3 64 4b be b0 c2 2c be
       -0.0059096743 -0.021661213 -0.19862656 -0.16871142
000250 c2 44 d0 3d b0 38 73 be dc 7e 18 be 1d c4 b1 bd
       0.101693645 -0.23752093 -0.14892143 -0.08679984
000260 22 a0 20 be ec f3 01 be eb f8 bf be 18 13 59 3e
       -0.15686086 -0.12690705 -0.37494597 0.2119869
000270 b1 0f 17 3e 2b ae 9e bd 66 64 b2 3e 7b ed fd bd
       0.1475208 -0.07748064 0.34842223 -0.123988114
000280 b4 18 2e 3d f4 3e f2 3d b6 4a ea bd 97 1b 9c be
       0.042504027 0.118284136 -0.11440031 -0.304898
000290 26 3b 3f 3e 18 3d 94 bc 9e 69 11 be c8 97 d4 bd
       0.18674907 -0.018095538 -0.14200446 -0.103805125
0002a0 c3 06 30 3e f5 1b a1 be c7 c4 1f be eb 81 00 be
       0.1719008 -0.31466642 -0.15602408 -0.1254956
0002b0 3a 45 f5 3d 78 d1 24 be 2b ce 90 bd b6 e5 43 be
       0.119760945 -0.16095531 -0.070705734 -0.19130597
0002c0 b3 48 38 be 2e c6 ea 3e 39 be a4 3e 4e 7a bd bc
       -0.17996483 0.45854324 0.32176378 -0.023129608
0002d0 e5 35 4b 3d 59 83 bc be 73 ec e7 bd df 6a 1f bf
       0.049611945 -0.3681896 -0.11324396 -0.6227245
0002e0 de 4d 58 be ae 0a 8d be 67 f4 47 be 39 05 36 3e
       -0.21123454 -0.2754721 -0.19526826 0.1777543
0002f0 06 ba de be 74 b5 2d 3e 15 69 61 be ca 76 d3 3e
       -0.435013 0.1696375 -0.22012742 0.41301566
000300 17 96 b2 3d 2b 82 83 3e 4e ac 80 be 8e ee ff be
       0.087200336 0.25685248 -0.25131458 -0.4998669
000310 9d f5 2f be 7d 17 19 3d 62 c8 43 3c 20 c4 e5 3d
       -0.17183538 0.037375916 0.01194963 0.112190485
000320 ef 83 aa 3d e9 1f f5 bd 98 bd be bd 92 ab a2 be
       0.083259456 -0.11968977 -0.09313506 -0.31771523
000330 82 1b 01 3d 00 62 d0 3e a8 e6 b4 bd 8e 70 ac 3d
       0.031520374 0.40699768 -0.08833057 0.084199056
000340 57 58 90 bd 87 ce 0f 3e 92 c3 7d 3e fb 31 d1 3c
       -0.070480995 0.14043628 0.24781635 0.025536528
000350 ff da ea bd d0 13 5b 3d dc fd 94 3e 1f 49 b1 3e
       -0.114675514 0.05348569 0.2909993 0.346261
000360 ca b2 73 3d fa 41 17 be 31 11 c2 3e db 22 00 bf
       0.05949668 -0.14771262 0.3790374 -0.50053185
000370 7b b8 91 3e ac eb ed 3d 40 cc 35 bb ed 49 14 be
       0.2846106 0.116172165 -0.002774015 -0.14481325
000380 0d c9 1b 3e 86 82 91 3e 8c 93 09 3e 7b 0b 5e 3e
       0.15213414 0.28419894 0.13435191 0.21684067
000390 e0 ff 30 be 92 14 02 bc 7b d4 08 bf 0e d2 94 be
       -0.17285109 -0.007939475 -0.5344922 -0.2906651
0003a0 bb 82 9d 3d 0b aa d7 be fd 2b 0a 3d d1 f5 50 3e
       0.076909505 -0.4212192 0.033733357 0.20406272
0003b0 66 71 61 bd fa 92 24 bd b1 97 90 bd a3 d7 18 3e
       -0.055039786 -0.04017923 -0.07060183 0.14926009
0003c0 ae cc 3f be 2b 42 ae 3d eb 8e 6e 3e 72 b5 7e 3c
       -0.18730423 0.08508714 0.23296706 0.01554619
0003d0 72 07 ae 3d ad 76 11 3e e8 4b c5 3d 2d 4a 9b be
       0.08497514 0.14205427 0.096336186 -0.3033003
0003e0 98 60 71 be e3 76 cc be e8 db a2 be f2 e0 93 bd
       -0.23572004 -0.39934453 -0.318084 -0.07220639
0003f0 c4 d0 86 be 0d 5d ab bd de 41 cc ba 30 22 80 be
       -0.2633115 -0.083673574 -0.0015583595 -0.25026083

model.3.bias f4 [128]
000000 de d2 6f be a4 31 00 3e 78 92 a5 be 5b ca 34 3f
       -0.23420283 0.12518936 -0.3233831 0.7062127
000010 b6 3b 9a be 7a 36 b6 be 5a d2 04 3e d8 87 53 3d
       -0.3012368 -0.35588437 0.12970868 0.051643223
000020 24 11 a4 bd 26 43 f2 be e0 eb 8b bd 8d 74 07 be
       -0.08011082 -0.47316855 -0.06832099 -0.13228054
000030 40 41 00 bf 97 e6 3a 3e 59 a6 80 3e 0a 93 71 3e
       -0.50099564 0.18252026 0.25126913 0.23591247
000040 46 4a ca 3d d2 26 e7 3d c7 fd 7b 3e fe 62 1d 3d
       0.09877448 0.11286701 0.24608527 0.038424484
000050 25 73 a9 be f8 d7 0e bd 1b 6a 52 be 91 83 72 be
       -0.3309566 -0.034873933 -0.20548289 -0.23683001
000060 02 8d 6e bd b6 a7 89 be 87 31 9b be dc 6e 15 3e
       -0.058239944 -0.26885766 -0.30311224 0.14593071
000070 0c 2a 33 be ab 90 94 3e cb 51 f2 3d ff 31 49 3e
       -0.17496508 0.29016623 0.11832007 0.19647978
000080 52 96 6c bd 3c ee 45 be 74 c1 46 be d0 1c 57 be
       -0.057760544 -0.1932916 -0.19409734 -0.21007085
000090 35 15 09 bf 05 7d 0f be dc 46 89 3e 07 00 ae 3e
       -0.53547984 -0.14012535 0.26811874 0.33984396
0000a0 d4 31 0f 3e d9 00 c7 3e f7 cc 24 bd e4 23 7e bd
       0.13983852 0.38867834 -0.040234532 -0.062045947
0000b0 e0 bd e1 bd d0 7b 37 be 08 b3 86 3e d2 2f 1f 3e
       -0.11022544 -0.17918324 0.26308465 0.15545586
0000c0 9e 5c 6f be c8 a5 5a be d8 c4 5b bd 4a 04 76 3d
       -0.23375174 -0.21352303 -0.05365452 0.060062684
0000d0 4b 1b cc 3e 9f a4 47 be 6e a1 ad be 84 3c 4b 3d
       0.39864573 -0.19496392 -0.33912224 0.04961826
0000e0 4a dc 32 3e 8a d8 96 bd 44 b4 17 3e 65 04 59 be
       0.17466846 -0.0736552 0.1481486 -0.21193083
0000f0 0f 55 d1 be e5 ec 2c be 53 c7 86 be bb a9 a5 be
       -0.40885207 -0.16887243 -0.26323947 -0.32356057
000100 44 b9 d6 be 03 1b 07 ba 77 79 a4 3d b5 e1 e4 3e
       -0.4193822 -0.00051538664 0.0803098 0.4470345
000110 67 f9 b2 3e 27 da fd bd 96 18 89 bd c9 4e 10 be
       0.34955904 -0.12395125 -0.066941425 -0.14092554
000120 ce fa df bb ec 67 8d be af 2d 8f bd 04 32 0a be
       -0.006835318 -0.2761835 -0.06991135 -0.13495642
000130 da 27 42 be d1 81 a0 3d 90 6b 79 be 8f 66 6a be
       -0.18960515 0.078372605 -0.24357438 -0.22890685
000140 8e b6 cb bc f4 5f e4 3d 82 d1 08 be 78 3c c5 be
       -0.024867322 0.11151114 -0.13361171 -0.38522696
000150 93 65 1a be cd 55 08 bc 3a 94 4d 3e 1f 93 ec be
       -0.1507781 -0.008321238 0.20076075 -0.46205994
000160 e5 05 0c bb a6 70 98 bd f6 cd 36 3b 0c 05 35 3d
       -0.0021365818 -0.07443361 0.0027893758 0.044194266
000170 f7 25 9f 3e a9 bb 9a 3d 5e 5c 43 3e 3e 42 11 be
       0.31083652 0.075553246 0.19078204 -0.14185426
000180 d8 2e 89 be dc e7 41 bd 30 89 ea be 70 42 9a 3e
       -0.2679355 -0.04734026 -0.4580779 0.30128813
000190 d4 b3 fa 3e e7 2a 06 be f4 bb fe 3d 5f 97 b8 3e
       0.48965323 -0.13102303 0.12438193 0.36052987
0001a0 c8 a3 87 be 4f 9d 11 be 64 90 d9 3d 3e 0d e7 bc
       -0.26492143 -0.14220165 0.106232435 -0.028204557
0001b0 2d 0f ce be ab 30 00 3f eb 6b 84 be 50 7e 8d be
       -0.40245953 0.5007426 -0.25863585 -0.2763543
0001c0 ac fd d6 bd 42 66 5c bd 77 78 4a be a3 4f 17 be
       -0.10497603 -0.05380846 -0.19772516 -0.14776473
0001d0 aa 23 19 3c 08 43 32 be 33 5d bf be f3 23 c7 3d
       0.009346882 -0.17408383 -0.37375793 0.09723654
0001e0 50 b1 3e be 67 cd fd 3d 53 89 87 3d c5 b3 9f be
       -0.18622327 0.12392693 0.066179894 -0.3119184
0001f0 9f ff f6 bc 92 b3 04 bc 2a 68 2f bd 2a e5 98 bd
       -0.030151187 -0.0080994535 -0.042823948 -0.074655846

model.5.weight f4 [10, 128]
000000 7c 03 ab be 6f 67 fb bd 82 a8 3b bf 62 c7 b0 bc
       -0.33401096 -0.12275588 -0.73304 -0.021579448
000010 41 63 a2 3d 46 ee 86 3d 13 0a 89 be 5c 57 a9 3e
       0.079290874 0.06588416 -0.267655 0.33074462
000020 be 51 13 bc f7 0b ed be 3f 03 8d 3e b2 48 e4 3c
       -0.008991657 -0.4629819 0.2754154 0.027866695
000030 51 8a ce be ca 19 c4 bd 15 a0 be be 2b e2 f8 3c
       -0.40339902 -0.095752314 -0.37231508 0.030381283
000040 2e d9 b0 be e0 53 77 3e 37 d1 96 3d af 92 f3 3c
       -0.34540695 0.2415309 0.07364123 0.02973303
000050 c2 0c 58 3e 56 b1 09 3e 67 6d 41 be 36 97 63 bd
       0.21098617 0.13446555 -0.1888939 -0.055564128
000060 21 53 0e bd 64 24 21 be af 4c 83 bd 6d 54 0c bf
       -0.034747247 -0.15736538 -0.064111106 -0.54816324
000070 bc e9 00 3e 5c 85 d7 3d ce 55 c0 bb c3 bc c2 be
       0.12589163 0.10523483 -0.0058696037 -0.3803464
000080 31 00 78 bc 56 8b 90 3d 3f 53 0f 3e d4 ef 55 be
       -0.015136764 0.07057826 0.139966 -0.20892268
000090 5f 9f dd bd d8 c2 25 bd d6 d5 53 bf 11 f9 63 bd
       -0.10821413 -0.04046902 -0.8274816 -0.05565745
0000a0 61 4e 8e 3d 4b b0 f0 ba cc 84 36 bc 0e be 2b 3e
       0.06948543 -0.0018363086 -0.01114006 0.16771719
0000b0 de d9 83 be ca 6e 04 3e 7f fa f7 be 8f 14 46 3e
       -0.25752157 0.12932888 -0.484333 0.1934378
0000c0 9e 1b fd 3d 64 c1 4c bf f1 ec ef bd 07 56 50 be
       0.12358783 -0.7998259 -0.11715115 -0.20345317
0000d0 19 51 cd be 72 15 77 3d a5 b1 cb be dc 8e c4 be
       -0.40100935 0.060323186 -0.3978397 -0.38390243
0000e0 5e 8b 09 bf 42 94 97 3d 38 d1 22 3d f4 8c 18 bf
       -0.5372828 0.07401325 0.039750308 -0.5959008
0000f0 2f 1c a9 bd ca 5d 1a 3f 2f 70 23 be 63 de 06 3e
       -0.08257329 0.6029936 -0.15960763 0.13170771
000100 30 2c 1a bc 6f 04 c8 3d 8d d5 8d 3d bc 1c 98 be
       -0.009409949 0.09766471 0.06925497 -0.29709423
000110 f4 e5 8c 3d 9c e4 89 bd d6 d8 73 3e b1 32 ee 3e
       0.068797976 -0.06733057 0.23813185 0.4652305
000120 81 03 16 3e a7 f1 39 bf c4 3e 36 3d de 55 8c 3d
       0.14649774 -0.7263436 0.04449345 0.06852315
000130 28 a4 06 be 3d 9f d2 3d d5 c6 0e bf 99 2e 46 be
       -0.13148558 0.102842785 -0.55772144 -0.19353713
000140 f1 2e 0a 3e 3a 0c 0e bf e7 ed 20 3d d6 c1 13 3e
       0.13494469 -0.55487406 0.03928938 0.14429411
000150 a5 1f 41 be 51 cc dc 3c 59 bb 08 be 36 38 9d be
       -0.18859728 0.026952894 -0.13352717 -0.30706948
000160 e3 66 8b bd a8 28 15 3e db 47 54 bd 57 c6 8c 3d
       -0.068067335 0.1456629 -0.05182634 0.06873768
000170 e8 41 a6 3d 64 0d 1e 3e 24 0e 18 3e c6 48 d2 bd
       0.08118039 0.15434796 0.14849144 -0.10267787
000180 cf 54 43 bd 18 cd 1a bf fa 7f a0 bd da d4 70 bd
       -0.0476883 -0.604692 -0.078369096 -0.05879674
000190 9b 40 d0 be c3 40 e6 3d e6 2b 0d be ca 50 5d 3d
       -0.4067429 0.11242821 -0.13786277 0.054032125
0001a0 4c d5 9a 3e 76 46 6c 3d dc c9 a2 be 29 ef 86 be
       0.30240858 0.057684384 -0.3179463 -0.2635434
0001b0 1e 3d ba be 21 2a 94 be fa 9d 9a be ff 40 2c be
       -0.36374754 -0.28938392 -0.30198652 -0.16821669
0001c0 64 ac ab be 40 1a a8 bc 5f 05 2f 3e 35 f8 92 be
       -0.3352996 -0.02052033 0.17091893 -0.28704992
0001d0 e6 0a 92 3e 41 16 02 be c3 7c 56 3d 96 9a 12 be
       0.2852394 -0.12703802 0.052365076 -0.14316782
0001e0 e2 56 03 3e 19 4e 7b be 86 d5 d9 bd 9b 00 0d 3e
       0.12826112 -0.2454151 -0.106364295 0.13769762
0001f0 b7 96 d5 bd 51 3b 81 be ba 4a a5 3d f4 d3 21 3e
       -0.10429137 -0.25240567 0.080708936 0.1580351
000200 55 b4 9e 3d ed d1 a5 bd 81 e2 99 3d cc 37 eb bd
       0.07749239 -0.08096681 0.07513905 -0.11485252
000210 3b 73 b5 3a 32 17 2f 3e a1 c0 bf 3d f4 68 1f bf
       0.0013843545 0.17098692 0.09362913 -0.6226952
000220 99 03 31 bf 4d ef a9 bd 10 35 1d bf cf 62 b6 3d
       -0.69146115 -0.08297596 -0.6140909 0.08905565
000230 a7 0c 76 3a 1e f1 72 3d fd 28 65 bf 07 7e 3d 3c
       0.00093860406 0.05931198 -0.8951567 0.011565692
000240 8d ab 69 3e 58 cc dd be e1 8a a7 be cc b8 89 be
       0.22819348 -0.43319964 -0.32723144 -0.268988
000250 08 26 11 be 45 47 4b bf c4 de 4f 3e d6 c2 79 3d
       -0.14174664 -0.79405624 0.20299822 0.060976826
000260 6c cf 01 bc c2 fc 90 be 73 06 dc be 19 61 7a 3d
       -0.007922988 -0.2831784 -0.4297367 0.061127756
000270 b8 74 ee be 02 d1 83 3e 9d 34 95 be 2b 52 96 3d
       -0.46573424 0.25745398 -0.29141703 0.07339891
000280 e1 7f 0d bd aa f5 df bd 69 ce 16 bf 9d 27 84 bd
       -0.034545783 -0.109355286 -0.58908707 -0.06452868
000290 fd ac 41 3d 79 8a 1e 3e b0 69 38 3e cc 84 75 bc
       0.047284115 0.1548251 0.18009067 -0.0149852745
0002a0 e4 71 00 3e 71 a6 01 bf 48 23 ba bc cd e4 73 bb
       0.12543446 -0.50644594 -0.022721902 -0.0037215233
0002b0 d8 6f 8e be f6 4c fb be fa 56 3d be 88 03 dc be
       -0.27819705 -0.49082154 -0.1849021 -0.42971444
0002c0 12 e7 e5 3c a9 dd e2 3d 2a ba 4d be eb 0b b0 3d
       0.028064284 0.110774346 -0.20090547 0.08596023
0002d0 9d 55 12 bf b2 3f 1a be 8a bc 26 3e c1 33 7a be
       -0.57161885 -0.1506336 0.1628286 -0.24433805
0002e0 8d 9d f4 bd 9e 80 91 be b0 c8 01 be 33 6d 90 3e
       -0.11944113 -0.2841844 -0.12674212 0.28208312
0002f0 7a 87 00 3e dd 21 40 bf 45 79 b5 3e e3 5e ca bd
       0.1255168 -0.7505167 0.35444084 -0.098813795
000300 66 e5 cf bd a2 29 a8 be 6e fd e8 bd 2d f2 16 bf
       -0.10151176 -0.32844263 -0.11376463 -0.5896328
000310 83 27 27 be 89 f3 2e 3d e1 9e 19 3e 96 0d 31 3c
       -0.16323666 0.042712722 0.15002014 0.010806462
000320 4c 89 fa be c0 dd 38 3e 0d 82 a0 be 66 6c e5 be
       -0.48932874 0.18053341 -0.3134922 -0.44809264
000330 c7 f3 28 be 00 a2 e6 3b c7 2b 55 3e a6 a6 2b bf
       -0.16499244 0.007038355 0.20817481 -0.6705116
000340 4b 6f 8f be 0d 75 2d be 9e 58 4e 3b 6a d1 0a 3e
       -0.28014597 -0.16939183 0.0031485925 0.13556448
000350 91 34 6b bb f6 36 07 bd 1f 79 b2 be 96 97 22 3e
       -0.0035889486 -0.0330114 -0.34858033 0.15878138
000360 08 ad 4e bf 6f d7 05 bf fc c1 e5 3d c8 35 24 bf
       -0.80732775 -0.5228185 0.1121864 -0.64144564
000370 d6 f3 ce be 30 f0 5d 3c a4 34 0a 3e e7 3c 49 3e
       -0.40420407 0.013546035 0.13496643 0.19652139
000380 b7 39 c1 3d e4 4b 39 3e fa ed 70 3e 01 e6 00 bf
       0.09434836 0.18095356 0.23528281 -0.5035096
000390 60 24 f4 3d 58 76 32 bd 8c 4f c8 be 58 91 d6 be
       0.119210005 -0.043569893 -0.3912319 -0.41907763
0003a0 f2 d7 89 3e 7d 65 5d bd cb a3 86 3d 2f 07 05 bf
       0.26922566 -0.054051865 0.0657421 -0.51964086
0003b0 39 c3 4f 3e 56 5e 87 3c 62 0f f8 3d 2c cc 05 3e
       0.20289315 0.016524475 0.12112309 0.13066167
0003c0 a2 63 af be f3 19 9a 3d 59 f0 ae 3d 7d 60 de 3d
       -0.342557 0.07524481 0.085419364 0.108582474
0003d0 87 a3 ca bd 56 06 26 be 56 c2 ab 3d 14 be b6 3d
       -0.098944716 -0.16213354 0.08386676 0.08922973
0003e0 68 61 b4 be b5 02 a2 be 3f 39 0c bd 6a 7e 87 be
       -0.35230565 -0.3164269 -0.03423428 -0.26463634
0003f0 f9 94 e8 3c 44 97 b0 3d da 72 09 be 6a 45 07 3d
       0.028391348 0.08622602 -0.13422719 0.033025183

model.5.bias f4 [10]
000000 bd 57 62 be 15 b0 c8 be 29 00 31 be 38 ce 03 be
       -0.22103782 -0.3919684 -0.17285217 -0.12871635
000010 10 d0 13 3e 01 ac 0f be 75 16 00 be 9d 4d 4e be
       0.14434838 -0.14030458 -0.12508567 -0.20146795
000020 71 b0 45 3f 81 f3 3f 3e
       0.77222353 0.18745233
